data.pth (torch, 5285 bytes, 6 tensors)

l1.weight f4 [8, 54]
00000000: 3366 cabc f7b6 3dbe 76dd 243f ef4e d53e
00000010: fcf1 643e 33b3 7dbe 158e d63e b0a7 cf3e
00000020: 06a2 c83e 9d12 633e f1e7 223f c26e 653e
00000030: 010e 413e 1b06 6d3e 7729 e8bd 2ff6 b33e
00000040: 6e7e 223f 0310 37be cab5 ddbd e69b 153f
00000050: 472a cf3c adb0 173f f859 3f3f c704 0a3f
00000060: 135a e03e e763 1d3f 7804 cabe 74e2 babe
00000070: 0d3a 88be 1901 04bf 011e a4bd 2865 503e
00000080: 6771 f33e 40e1 053f 712d 85be f553 d53e
00000090: b9b5 43be 1008 a23e b459 053f fb3e d03e
000000a0: af00 fc3c 2a02 87be b23d ff3d 8dae 93be
000000b0: fb8e 0d3f 3b32 20be bb9c 60be 1330 a03c
000000c0: bdec 8e3e e24b edbe 7364 b73e b0c7 aebe
000000d0: bfc4 b03e 105e 843d 7e74 6abe b75e 27bd
000000e0: 94af b13e fef8 be3e c168 813e a776 323f
000000f0: d35a b03e bf9b 1d3f caf4 e33e 4e93 f63e
00000100: c5af 3fbb 9f98 7ebd b163 ad3e 8c4b 96be
00000110: 8922 3cbe d0f4 f5bd fe55 903c 9665 403f
00000120: 82d4 8bbe 11d6 913d 0913 b9bd e0a5 64be
00000130: d579 45be b7fd 65be 5a69 13be 7369 393e
00000140: fda0 debe 74eb 1abe 3a39 18be b620 6ebe
00000150: b6ed ce3e c4a4 97be 842d a4bd 8cf4 b53e
00000160: d9ee 25be 0690 fbbd ee08 b03d f5f1 1a3f
00000170: c522 df3e 8f88 a13e bcfa dc3e dd59 1dbf
00000180: 7363 7fbd 0197 eabc c60c ee3e b2b7 2fbd
00000190: 1b0f f2be 4a3f bbbd d59f 533e 062e ccbe
000001a0: a7cb 99be 4162 9cbe 1377 ef3e 0d41 873e
000001b0: 94a9 6f3f 5896 cb3d 802f b2be 4003 7e3e
000001c0: 92af 9a3d 177a 24bf e5ff d8bc 4dad 1e3d
000001d0: f5fa c1be 55f1 99bd 5fd9 e23e f9e5 00be
000001e0: f09c a6be 13fd 30be c480 5ebe c248 493d
000001f0: c140 e53e d989 24bf 4968 753e 760c 2e3f
00000200: 8bd3 383f 8479 173f 9c3b 203f 28eb 933e
00000210: f082 71be a4ef 8b3e a681 523e c314 cfbe
00000220: d6c1 d7bd d23e 9dbe 848e 05bf 1a13 b3be
00000230: f879 f73e 4083 d9bd f998 9bbe 6b93 863c
00000240: 5ad2 b0bd 61ef c8be 89ed 28bd a26a bdbd
00000250: 3f0a cbbe 440b c33e f673 0abe 917c 57bd
00000260: bc3d 91be 2056 8dbd 5253 b13f e42d 353f
00000270: 70e3 ad3e 9330 703e 3757 b1bc 6d15 0f3e
00000280: e8d9 74be 3708 963e c428 913e ee9a 30bd
00000290: 0649 b2be c49c ac3d 7f9c 723e a93c d73b
000002a0: 201d 96be bd16 8cbe 34a7 ecbd 551f a9be
000002b0: 9623 dc3e fb01 c93e 21d3 a23e dfe8 e73e
000002c0: ac25 853c d9ca 013f 3f05 c63e 363c afbb
000002d0: 228a b93e 1a59 aa3e 3c45 943e 4cd1 dc3e
000002e0: 2267 dd3e 1636 213f 7f68 c43e 7620 9a3d
000002f0: 74e7 213f 6477 60be 30ad 3b3e 255f 38be
00000300: a9db f83d 82d7 1f3f c01d c93e 492c 2cbe
00000310: 0db9 f23d a79b be3e 1d58 973e 4aa3 233c
00000320: e8b0 80be 1e20 99be 65b7 6d3e ad44 fe3e
00000330: 143a d23e 8e5f d3bd 3645 c13e 3fb6 ba3d
00000340: f069 e73c 4e1f ba3c f647 d03e 24ee 443f
00000350: eaab c53e fa67 d53e ff24 0abe b59e 1cbd
00000360: a503 7bbe 39de 573f ac5f b7be 0b6b 8dbd
00000370: 257d 52be aa36 813f 347f d6bd 4f22 c2be
00000380: 9ba8 47bc ab37 16bf 13a8 47bd d34c 163f
00000390: 3bcf 143f 4684 423f 6039 453f 7563 e73e
000003a0: fcbc b93d a989 8f3f 187a cc3e 4616 a3bd
000003b0: a67a 62be 5bc6 efbd 93d4 bbbd 66d4 883e
000003c0: 6733 ff3e a62e 00be 9ed0 193f 24f3 953f
000003d0: f08c ce3e e377 6b3f eadd 493f efe4 473f
000003e0: 55c4 75be c088 01bf f20f 893f 5f29 d83e
000003f0: 6eb3 e53e 1006 d13d 33c6 c83b 43d0 5cbe
-0.024706936 -0.18526827 0.6440042 0.41661784 0.22357935 -0.2477539 0.41905275 0.40557623
0.39186114 0.22175069 0.63635164 0.22405532 0.18852998 0.2314686 -0.11336034 0.3514876
0.63474166 -0.17877202 -0.10825689 0.5844101 0.025288714 0.5925396 0.74746656 0.5391354
0.4381872 0.61480564 -0.39456534 -0.36500895 -0.2660679 -0.51564175 -0.08013535 0.20351088
0.47547457 0.5229683 -0.26011232 0.41665617 -0.1911229 0.31646776 0.5209 0.4067305
0.030762045 -0.2636884 0.12462939 -0.2884411 0.55296296 -0.15644161 -0.21934788 0.019554174
0.27914992 -0.46346956 0.35818824 -0.34136724 0.34525105 0.064632535 -0.22896 -0.04086181
0.34704268 0.3729934 0.25275233 0.697123 0.34444293 0.61565775 0.44522697 0.4815926
-0.0029249054 -0.06215727 0.3386512 -0.29354513 -0.18372549 -0.12009585 0.01761913 0.7515501
-0.27310568 0.07120908 -0.09036834 -0.22328901 -0.19284756 -0.22460066 -0.14395657 0.18106632
-0.434822 -0.1512888 -0.1486558 -0.23254666 0.40415734 -0.29617894 -0.08016494 0.35538137
-0.16204394 -0.1228333 0.08595453 0.6052545 0.43581215 0.31549498 0.43160045 -0.61465245
-0.0623507 -0.028636457 0.4649412 -0.042899795 -0.4727715 -0.09142931 0.2066644 -0.39878863
-0.30038187 -0.30543712 0.46770534 0.26416817 0.9361813 0.09940785 -0.34801865 0.24805927
0.07553019 -0.64248794 -0.026489208 0.03873949 -0.37886778 -0.075167336 0.44306466 -0.12587728
-0.3254161 -0.1728404 -0.21728808 0.049141653 0.44775966 -0.6427284 0.23965563 0.67987764
0.7219779 0.59169793 0.62590957 0.28890347 -0.23585105 0.2733127 0.2055727 -0.40445527
-0.10535018 -0.3071199 -0.52170587 -0.3497551 0.48335242 -0.10620737 -0.30390146 0.016427716
-0.086338714 -0.39245132 -0.041242156 -0.09248854 -0.39656255 0.38094532 -0.13520798 -0.05260903
-0.28367412 -0.06901193 1.3853552 0.7077315 0.33962584 0.2345603 -0.021648033 0.13973017
-0.2391125 0.29303142 0.28351414 -0.043116502 -0.34821337 0.08428338 0.23692511 0.0065685106
-0.29319096 -0.27361098 -0.11555329 -0.33031717 0.429959 0.39259323 0.31801704 0.45294854
0.016253315 0.50700146 0.38675877 -0.005347754 0.362382 0.33271104 0.28959072 0.4312843
0.43242747 0.62973154 0.38360974 0.07525723 0.63243794 -0.21920544 0.18327785 -0.18005045
0.12151272 0.62438214 0.3928051 -0.16813768 0.11851702 0.37228128 0.29559413 0.009987662
-0.2513497 -0.29907316 0.2321449 0.4966177 0.41059935 -0.1032096 0.37748116 0.09116792
0.028248757 0.022720005 0.40679902 0.76925874 0.38607723 0.4168089 -0.13490675 -0.038237292
-0.24513109 0.8432346 -0.3581518 -0.069051825 -0.20555551 1.0094807 -0.10473481 -0.379168
-0.012186195 -0.5867869 -0.048744272 0.58710974 0.5812871 0.75983083 0.7704067 0.45193067
0.09069249 1.1213886 0.399369 -0.07963233 -0.22117099 -0.11707755 -0.09171405 0.26724547
0.49843904 -0.12517795 0.6008395 1.1714826 0.40341902 0.9197981 0.7885424 0.780837
-0.24000676 -0.5059929 1.0707991 0.42219064 0.44863456 0.102062345 0.006127143 -0.2156382

l1.bias f4 [8]
00000000: 48fb 4f3f 7e4b d23e 0f8a 243f ebb8 573f
00000010: d237 643f 963e 293f 9d06 f43e 7d8d 173f
0.812428 0.4107322 0.6427316 0.8426654 0.89147675 0.66111124 0.47661296 0.5920027

l2.weight f4 [8, 8]
00000000: 0446 383f a0ff d9be 1050 83bf e1c7 0e3f
00000010: 36f7 e83e 3045 e8be d61e 41bf 4589 623e
00000020: f3d9 5a3f 871d 38bf 1e96 de3f 3f48 8b3f
00000030: f5f7 0fbe 898b c1bd 5bfb 8abe d3ab 9e3f
00000040: d4f8 a23f 650b 043f a970 a5be b21b 243f
00000050: 36b7 043f 4b5d 8e3f 1b45 7fbf 89ad bebe
00000060: 559e 2b3f 6196 833f afc4 b9bf de19 faba
00000070: 64df 9f3c 3aa5 4a3f 67b6 a6bd 5555 87bf
00000080: 8352 c6bc 6c31 41be 0d8d 0d3e cb86 92be
00000090: 40bd af3d e09a 143e 0a75 d6ba e495 8abe
000000a0: e320 27bf 54a5 973c 5a95 9ebf c33c 913f
000000b0: 3f5f c83f 5c05 3ebf 505c d53f 7d31 dc3e
000000c0: 45c6 8f3d 0a60 1bbd 3ae6 9ebe 9ed1 c3be
000000d0: e20f d0be d320 1c3e c527 5c3d 7c12 1dbe
000000e0: 7fa2 a23e bc50 02be ee69 103d aabe a2be
000000f0: 7947 1ebd 1428 a0be bf6d 043e 5a74 26be
0.71981835 -0.4257784 -1.0258808 0.5577374 0.45501107 -0.45365286 -0.75437677 0.22122677
0.85488814 -0.71920055 1.7389562 1.0881423 -0.14059432 -0.09450442 -0.27144894 1.2396187
1.2732186 0.51579887 -0.32312515 0.6410476 0.5184206 1.1122221 -0.9971482 -0.37241772
0.6703847 1.0280267 -1.4513148 -0.0019081195 0.0195157 0.79158366 -0.08140259 -1.0572916
-0.024209267 -0.18866509 0.13823338 -0.28618464 0.085810184 0.14512205 -0.0016361785 -0.27067482
-0.65284556 0.018511452 -1.2389328 1.1346668 1.5654067 -0.7422693 1.6668797 0.43006507
0.07020239 -0.037933387 -0.31035024 -0.38245863 -0.40637118 0.15246896 0.053748865 -0.15339082
0.317646 -0.1272611 0.035257272 -0.3178609 -0.03864238 -0.31280577 0.1293249 -0.16255322

l2.bias f4 [8]
00000000: b42b c3be 568c af3e 14fb 533f 756f da3e
00000010: a115 d7be f644 043f f7fb eabe 9e48 8dbe
-0.3811928 0.34286755 0.8280499 0.4266316 -0.4200869 0.51667726 -0.4589536 -0.27594465

l3.weight f4 [7, 8]
00000000: 04d1 3d3f 247b 30bc ca39 cebe 5006 babf
00000010: 1240 74be eed8 bbbd 550c 65be c320 aabe
00000020: 059d edbe 3544 ccbf 74e7 6abf 9963 f6bf
00000030: 82b1 65be f3b9 573f e35e 66be 9350 7fbd
00000040: 58f4 5fbf 2ee6 a4bf 875c a63e 09db 0f3e
00000050: ae9e 583e 06e7 b53e b9a0 0d3e 7c20 e73d
00000060: 8a1f 57bf a338 b53e ee25 503f 2fb1 bebf
00000070: 218a d63a bb2f b1bf 96b3 05bd 07fc 633e
00000080: 493e a0bf 5997 0a3e 2fb9 86bf 75bc 94bf
00000090: 80ac 9cbb b733 d73e 2bd1 3bbd a931 463e
000000a0: 5fe9 6ebe efc8 88bf c74b 5c3f 26f5 2c3f
000000b0: e0e8 88bd 16c0 c3bf 53da 80be cfbe 0bbe
000000c0: 6de0 0bbf 70f7 823f 697a cfbf 4289 4ebf
000000d0: dc77 1dbe afa1 50bf 0a5c 863e 018e b3be
0.7414706 -0.0107715465 -0.40278465 -1.4533176 -0.23852566 -0.091722354 -0.22367986 -0.3322812
-0.4640886 -1.5958315 -0.9175942 -1.9249145 -0.22430995 0.8426811 -0.22497134 -0.0623327
-0.87482214 -1.2882745 0.32492468 0.14048399 0.21154281 0.3552782 0.13830842 0.11285493
-0.840325 0.35394773 0.81307876 -1.4897822 0.001636807 -1.3842691 -0.03264197 0.2226411
-1.2519008 0.13534297 -1.0525264 -1.1620013 -0.004781306 0.42031643 -0.045853775 0.19354881
-0.23331212 -1.068632 0.8605313 0.67561567 -0.066850424 -1.5292995 -0.25166568 -0.13647006
-0.5463932 1.0231762 -1.6209232 -0.8067819 -0.15377754 -0.8149671 0.26242095 -0.35069278

l3.bias f4 [7]
00000000: ceb2 55bf 2ed0 ef3d dc0e 9bbc 7626 82bd
00000010: 978b 08bf 6dc1 d33d de14 cb3e
-0.8347596 0.11709629 -0.018927984 -0.06354992 -0.53338 0.103396274 0.39664358
